model/model-2022-03-21-14-40-39.pt (torch, 2831 bytes, 8 tensors)

net.0.weight f4 [5, 4]
000000 88 1a c1 bd ec 01 03 be 5c 87 1c be d8 32 f6 3d
       -0.094288886 -0.12793702 -0.1528601 0.120214164
000010 10 a9 6c 3d e8 35 b8 bd a8 59 a3 bd a8 a3 52 3e
       0.057778418 -0.08994657 -0.07976085 0.20570242
000020 60 b9 c1 3e 66 fa 87 be 60 c5 4a bd 6c 5e b9 be
       0.37836742 -0.26558226 -0.049504638 -0.3620485
000030 a0 17 cd 3c b0 76 ed 3e 14 4b 32 3e e0 2c 8f 3d
       0.02503568 0.46379614 0.17411453 0.06990981
000040 78 38 4d 3e b0 1a da 3d 50 3c ab be e2 ba 89 3e
       0.20041072 0.106496215 -0.33444452 0.26900393

net.0.bias f4 [5]
000000 b2 78 fd be 66 45 df 3e dc 24 54 be fc 48 d7 be
       -0.49506146 0.43607634 -0.20717186 -0.4204787
000010 7c 51 34 be
       -0.17609209

net.2.weight f4 [2, 5]
000000 88 c0 1d be 18 42 1d 3e 10 6f c5 3d 04 82 c8 be
       -0.15405476 0.15357244 0.09640324 -0.39161694
000010 4d 32 84 be a4 4e f1 bd 20 a1 cc bd 50 15 fd bd
       -0.25819626 -0.11782578 -0.0999167 -0.12357581
000020 c4 93 0a 3e f0 57 a6 3d
       0.1353293 0.081222415

net.2.bias f4 [2]
000000 85 87 b0 be 16 d3 36 be
       -0.34478393 -0.1785396

net.4.weight f4 [2, 2]
000000 a0 d4 e0 be 25 05 d5 be e0 69 cf bd 40 f6 99 bd
       -0.4391222 -0.41605487 -0.10127616 -0.075176716

net.4.bias f4 [2]
000000 b8 d3 1f 3e db b5 33 3f
       0.15608108 0.70199364

net.6.weight f4 [4, 2]
000000 1f 4d 34 3f 8a 2a fa 3e 72 75 57 be 81 6a 04 3f
       0.7043018 0.4886058 -0.21040896 0.5172501
000010 14 b8 12 3e fb d4 01 3f 6b 7c 32 bf b7 b0 18 3f
       0.14328033 0.5071561 -0.69721097 0.59644645

net.6.bias f4 [4]
000000 75 c8 2e bf 50 47 b8 be 2c 96 aa be 23 1f 0b 3f
       -0.68274623 -0.35991907 -0.33317697 0.54344386
